LeNet_5_AVG.tar (torch_old, 413125 bytes, 27 tensors)

conv1.0.weight f4 [32, 1, 5, 5]
0	0xbcc10072	-0.023559783
1	0xbdc1213f	-0.09430169
2	0xbdd0d199	-0.101962276
3	0xbd2843fb	-0.041080456
4	0xbd9315c9	-0.071818896
5	0x3cb78ad0	0.022405058
6	0x3c0a2620	0.008431941
7	0xbd191d59	-0.037381504
8	0xbd0d32b2	-0.034472175
9	0xbd2ae24f	-0.04171973
10	0xbc58f2c1	-0.013241471
11	0x3d37fbf1	0.044918004
12	0x3c15df54	0.009147484
13	0xbd4f7236	-0.05064603
14	0xbd8215b8	-0.06351799
15	0xbd13e5c9	-0.036107812
16	0x3c48d52c	0.012257855
17	0x3cd3184a	0.025768418
18	0xbd9de419	-0.07709522
19	0xbdb517ba	-0.08842416
20	0x3d5af01f	0.053451654
21	0x3d58b3d4	0.052905872
22	0x3d4ee117	0.05050763
23	0xbc762bd6	-0.0150251
24	0xbd30c5af	-0.043157276
25	0x3c11dd13	0.008902806
26	0x3d616ad8	0.055033535
27	0xbc74efbd	-0.014949736
28	0xbd0d5ff4	-0.034515336
29	0xbcd0df6c	-0.02549716
30	0xbc68a1cc	-0.014198732
31	0x3d879ddd	0.06621907
32	0x3b4f4516	0.0031626872
33	0xbcfb8985	-0.030705223
34	0x3b5691cf	0.0032740717
35	0xbd63706f	-0.055527147
36	0xbcd46af5	-0.025929907
37	0x3d0375b0	0.032094657
38	0x3c65d871	0.014028654
39	0x3c9d0493	0.01916722
40	0xbd5ce543	-0.05392958
41	0xbc161508	-0.009160288
42	0x3c9bed05	0.019033918
43	0xbced4d3c	-0.028967492
44	0xbd35d9c7	-0.04439714
45	0xbd1cb8d2	-0.038262196
46	0x3ce6c84a	0.028171677
47	0x3d271ee9	0.040800963
48	0x3c7d5b5d	0.015463677
49	0x3cc7dbbd	0.024396772
50	0xbbc75526	-0.0060831485
51	0x3c24af9c	0.010051634
52	0xbc8c16ef	-0.01710078
53	0xbd08e458	-0.03342089
54	0xbd927104	-0.07150462
55	0xbc9e0204	-0.01928807
56	0x3cbac3f6	0.02279852
57	0xbd3b0fc5	-0.045669336
58	0xbdd7ed1d	-0.10543273
59	0xbde48257	-0.11157673
60	0xbd0003ea	-0.031253733
61	0x3d285b96	0.04110297
62	0x3cda42a0	0.026643097
63	0xbc910820	-0.01770407
64	0xbcf6d1d6	-0.030129354
65	0xbca09f5f	-0.019607244
66	0x3c8ab3f4	0.016931511
67	0x3d34d54f	0.04414874
68	0x3d381553	0.04494221
69	0x3d0773f8	0.03306958
70	0x3b53b3c1	0.0032303187
71	0xbbe042e5	-0.006843912
72	0x3cc180c2	0.023620967
73	0x3d58a19a	0.05288849
74	0x3db40a44	0.087910205
75	0x3ce7e8f0	0.028309315
76	0x3c9c71fb	0.019097319
77	0xbc883b96	-0.016629975
78	0xbcb758f1	-0.022381278
79	0xbca085ef	-0.019595115
80	0xbd0177ec	-0.031608507
81	0x3b4a2010	0.0030841865
82	0x3d922f68	0.07137948
83	0xbd0a0b81	-0.033702377
84	0xbd260a43	-0.04053713
85	0xbd366a30	-0.044534862
86	0x3bc43583	0.0059878244
87	0x3d98adfc	0.0745506
88	0xbceaeeea	-0.028678376
89	0xbd49b064	-0.049240485
90	0xbd1dec87	-0.03855565
91	0x3ca180fa	0.019714821
92	0x3d3e40b9	0.046448443
93	0xbc9c7967	-0.019100858
94	0xbcd268a5	-0.025684664
95	0xbd0f0bf9	-0.034923527
96	0x3d09c62b	0.033636253
97	0xbbbba97a	-0.0057269903
98	0xbcdb9b1e	-0.026807364
99	0xbacbd923	-0.0015552383
100	0x3c6f8908	0.014620073
101	0x3d907303	0.07053187
102	0xbcb9ec2c	-0.022695623
103	0xbde1c584	-0.11024001
104	0xbe06089a	-0.13089219
105	0x3d14c578	0.036321133
106	0xbd65f114	-0.056138113
107	0xbe0b996d	-0.13632746
108	0xbcda87f6	-0.02667616
109	0x3dac63f4	0.08417502
110	0xbd7a89b9	-0.0611665
111	0xbd54834e	-0.051883034
112	0x39d91a84	0.0004140922
113	0x3db4d55d	0.08829758
114	0x3d63a18d	0.05557399
115	0xbd965afb	-0.07341572
116	0x3d372c48	0.044719964
117	0x3d3c55d8	0.045980304
118	0x3d32ef0c	0.043685004
119	0xbd23253e	-0.03983044
120	0xbd9fdb9b	-0.07805558
121	0xbcf56581	-0.029955627
122	0xbd5b7281	-0.053575996
123	0xbc8a1337	-0.016854865
124	0xbc59d611	-0.013295666
125	0xbd4ee79b	-0.050513845
126	0xbdd012a9	-0.10159809
127	0xbc7fe55b	-0.015618647
128	0x3bcbc983	0.0062190904
129	0xbd77fd92	-0.060544558
130	0x3ceb0462	0.028688613
131	0xbd6e780b	-0.05821995
132	0xbd65f65f	-0.05614316
133	0xbc703ef1	-0.014663444
134	0xbd1d41f9	-0.038392995
135	0x3d5b678b	0.053565543
136	0x3c91ee70	0.017813891
137	0xbd415ac9	-0.04720572
138	0xbd1ee4c4	-0.038792387
139	0xbd04d20d	-0.032426883
140	0x3d7a615a	0.061127998
141	0x3db9d965	0.09074668
142	0xbb97f977	-0.004637893
143	0xbd751188	-0.059831172
144	0xbd13e858	-0.036110252
145	0xbced47c1	-0.028964879
146	0xbc1d9196	-0.00961723
147	0xbd21b920	-0.03948319
148	0xbc9db740	-0.01925242
149	0xbdb3547d	-0.08756349
150	0xbd7a4733	-0.061103057
151	0x3d82bbbf	0.06383466
152	0x3d4f0db0	0.050550163
153	0x3da4fcc2	0.08056022
154	0x3db9ff86	0.0908194
155	0xbdfb8a11	-0.122821935
156	0xbdc9088e	-0.09816085
157	0xbda30c55	-0.079613365
158	0xbce4a678	-0.02791141
159	0x3cdad85a	0.026714493
160	0x3ce103c7	0.027467621
161	0x3b072192	0.0020619375
162	0xbe0d4860	-0.1379714
163	0xbe3232ad	-0.17402144
164	0xbdfb7f21	-0.12280107
165	0x3c2ca8e3	0.010538313
166	0x3d85d197	0.06534117
167	0x3ced22a0	0.028947175
168	0x3baac2fe	0.005211233
169	0xbca7d689	-0.02048804
170	0xbc52d7af	-0.012868806
171	0x3cacf266	0.021111678
172	0x3d47b3fe	0.04875564
173	0x3d869f2c	0.065733284
174	0x3d0470ae	0.032334022
175	0x3d53c83b	0.051704627
176	0xbcbc8b46	-0.02301563
177	0xbcd0e621	-0.025500359
178	0x3c2b2458	0.010445677
179	0xbd6e19fb	-0.058130246
180	0x3ba3ad1e	0.0049950024
181	0xbc372d8c	-0.011180293
182	0x3c615f64	0.013755653
183	0x3cca3c5e	0.024686988
184	0xbc79a58c	-0.015237223
185	0x3d48286d	0.048866678
186	0x3d24442a	0.04010407
187	0x3cf2f046	0.029655587
188	0x3c2973b0	0.010342523
189	0xbcd91dc8	-0.026503459
190	0x3baf9075	0.005357797
191	0xbc1c2d5b	-0.009532298
192	0xbcbdbc83	-0.023161178
193	0xbcb81473	-0.022470688
194	0xbd523214	-0.05131729
195	0xbd8ba2bb	-0.06818148
196	0xbd7c1858	-0.061546654
197	0xbcd2c62c	-0.025729261
198	0xbc6fe521	-0.014642031
199	0xbd371da3	-0.044706
200	0x3d17c53b	0.037053328
201	0x3c087dea	0.0083308015
202	0xbab3e22c	-0.0013724021
203	0xbd935968	-0.07194787
204	0xbd57a190	-0.052644312
205	0x3ce8eb6f	0.028432576
206	0x3ca40c1c	0.020025305
207	0x3dc7dab9	0.09758515
208	0x3d677ba3	0.056514394
209	0xbc529fec	-0.012855511
210	0xbd46bdc9	-0.048520837
211	0xbd806edf	-0.06271147
212	0xbab2653b	-0.0013610491
213	0x3d07a856	0.033119522
214	0xbd18913f	-0.037247892
215	0xbd91b10c	-0.07113847
216	0xbe00e860	-0.12588644
217	0xbd8c4600	-0.06849289
218	0x3cdd6e10	0.027030021
219	0xbd0499b7	-0.032373156
220	0x3dec3a68	0.115345776
221	0x3dc34083	0.09533789
222	0x3c1f9cd5	0.0097419815
223	0x3ad6401c	0.001634601
224	0xbd570d8f	-0.052503165
225	0xbca00303	-0.019532686
226	0xbd4068d2	-0.046974964
227	0xbc9b2e14	-0.01894287
228	0xbc21861f	-0.009858637
229	0x3c8e8fc3	0.017402535
230	0x3d0fb243	0.035082113
231	0x3d09c90b	0.033638995
232	0x3d0dc864	0.034614936
233	0x3d35d460	0.04439199
234	0x3db8b9da	0.09019823
235	0x3b226a38	0.002478255
236	0x3d6a1f5d	0.057158817
237	0x3d44a749	0.048011098
238	0x3cfbefb1	0.030753942
239	0x3dbb7c87	0.09154611
240	0xbd7dda17	-0.061975565
241	0x3d43ef77	0.047835793
242	0x3caa2fce	0.020774748
243	0xbd49d31d	-0.0492736
244	0x3d1bde9f	0.038054105
245	0xbe216276	-0.15760216
246	0xbd3f4649	-0.04669789
247	0xbd559a76	-0.05214926
248	0xbd9ee97b	-0.077593766
249	0x3c3b3393	0.0114258705
250	0x3c4f73f4	0.012661923
251	0xbd36173c	-0.04445575
252	0x3cf714a8	0.030161217
253	0xbb656139	-0.0035000576
254	0x3d2b062e	0.04175394
255	0xbcc03869	-0.023464398

conv1.1.weight f4 [32]
0	0x3e6cf79d	0.23141332
1	0x3d8a9315	0.06766335
2	0x3d84af3b	0.06478735
3	0x3dd64b6f	0.104636066
4	0x3e5eefd9	0.21771182
5	0x3e6bbc41	0.23021032
6	0x3e237c5b	0.15965407
7	0x3deb3553	0.1148478
8	0x3e0314b4	0.12800866
9	0x3da5bfb1	0.08093203
10	0x3de49d9f	0.11162876
11	0x3daf346e	0.08554922
12	0x3dd2edb0	0.102992415
13	0x3d1f8994	0.038949564
14	0x3e68a228	0.22718108
15	0x3d7c05a4	0.061528817
16	0x3d61ce34	0.05512829
17	0x3e8ef3be	0.27920336
18	0x3d8e667e	0.069531426
19	0x3e2a4cdb	0.1663088
20	0x3dc50aae	0.096211776
21	0x3e2cd9a9	0.16879906
22	0x3dea84dc	0.11451122
23	0x3db2c5ce	0.087291345
24	0x3e226ae7	0.15861093
25	0x3d7065cf	0.058690842
26	0x3dfebb39	0.12438054
27	0x3dd3455b	0.10315963
28	0x3e5f3dcb	0.21800916
29	0x3df08768	0.11744577
30	0x3df46941	0.11934138
31	0x3e4c0449	0.1992351

conv1.1.bias f4 [32]
0	0xbdaeb905	-0.085313834
1	0xbb83d8ef	-0.0040236632
2	0x3b9d10d3	0.0047932654
3	0xbd620026	-0.055175923
4	0xbd5927df	-0.05301654
5	0xbd91cee3	-0.07119539
6	0xbd04232f	-0.032260116
7	0xbc9f781d	-0.019466454
8	0xbd453d44	-0.04815413
9	0xbc880567	-0.016604139
10	0xbd22e19f	-0.03976595
11	0x3c4f7e15	0.012664338
12	0xbd6449aa	-0.055734314
13	0xbd5735f9	-0.052541707
14	0xbd59580a	-0.053062476
15	0xbcd21902	-0.02564669
16	0xbd5631ba	-0.052293517
17	0xbda65ad6	-0.08122794
18	0xbc3459d9	-0.0110077495
19	0xbd298f49	-0.041396413
20	0x3c194b48	0.009356327
21	0xbd74e959	-0.05979285
22	0xbdf250bb	-0.11831804
23	0xbd55518e	-0.05207973
24	0xbcfa0243	-0.030518657
25	0xbc7d0b0d	-0.015444529
26	0xbe102858	-0.1407789
27	0xbd2ad16b	-0.041703623
28	0xbdcb64d6	-0.09931342
29	0xbd09f8b6	-0.033684455
30	0xbddbd178	-0.10733312
31	0xbd3c3fab	-0.045959156

conv1.1.running_mean f4 [32]
0	0xbdc8df84	-0.09808257
1	0xbc0ac661	-0.008470149
2	0xbc9a3851	-0.018825682
3	0xbcc6c373	-0.02426312
4	0xbd95c573	-0.07313051
5	0xbdc39bfc	-0.09551236
6	0xbd32b6d6	-0.043631397
7	0xbd2db308	-0.042407066
8	0xbc9affd9	-0.018920826
9	0x3c3ebccf	0.011641695
10	0xbcac8913	-0.021061456
11	0xbace9024	-0.001575951
12	0xbc0baa71	-0.008524523
13	0x3c66195b	0.014044131
14	0xbdaac8d6	-0.08339088
15	0x3cb13a52	0.021634255
16	0x3cab9fcb	0.020950219
17	0xbdb0b1f1	-0.0862769
18	0x3be90d2f	0.0071121673
19	0xbdb68990	-0.08912957
20	0xbd186e94	-0.03721483
21	0xbd24363c	-0.040090784
22	0x3cbf746a	0.02337094
23	0x3c898d73	0.016791081
24	0xbd8b077d	-0.06788538
25	0x3c87640e	0.016527202
26	0x3cda768f	0.026667861
27	0x3a635640	0.0008672215
28	0xbd542e27	-0.051801827
29	0xbd2cdce5	-0.04220285
30	0x3c0d406c	0.008621316
31	0xbda3ca92	-0.079976216

conv1.1.running_var f4 [32]
0	0x3ccec884	0.025242098
1	0x3ae51d02	0.0017479958
2	0x3c49b5c8	0.012311406
3	0x3b4f3dae	0.0031622457
4	0x3c86da1d	0.016461426
5	0x3ca81983	0.020519977
6	0x3c83cf88	0.01609017
7	0x3bdd4aef	0.0067533175
8	0x3b946443	0.0045285537
9	0x3c57bf82	0.013168218
10	0x3bc1c349	0.0059131724
11	0x3b9e76df	0.004835948
12	0x3c1a8614	0.009431381
13	0x3a340a5a	0.00068679976
14	0x3c97046c	0.018434726
15	0x3c04c9ad	0.008104724
16	0x3b923c18	0.00446273
17	0x3c2eee84	0.010676984
18	0x3c5c8cae	0.013461275
19	0x3ce0a966	0.027424525
20	0x3cdaec0a	0.02672388
21	0x3c4e55a1	0.012593658
22	0x3c30f4ec	0.010800581
23	0x3c8d424e	0.01724353
24	0x3ca9b087	0.020714058
25	0x3b413436	0.0029480583
26	0x3c1c41ed	0.009537202
27	0x3bdf8d59	0.00682227
28	0x3c58718b	0.0132106645
29	0x3cb975cb	0.022639176
30	0x3c0c1975	0.008550991
31	0x3cb1832e	0.021668997

conv1.3.weight f4 [32, 32, 5, 5]
0	0x3bb2664e	0.0054443246
1	0xbbc7ac28	-0.0060935207
2	0xbbfbd454	-0.0076852236
3	0x3c86107c	0.016365282
4	0x3b7ca89d	0.003855265
5	0x3abd346f	0.0014435182
6	0x3c38d54b	0.011281322
7	0x3b201de3	0.0024431876
8	0xbba5282d	-0.0050401897
9	0x3c035cc8	0.008017726
10	0xbb9bdb35	-0.004756356
11	0x3cd42f7f	0.025901554
12	0x3cab23fd	0.020891184
13	0x3b831ae6	0.0040010093
14	0x3b992abf	0.004674285
15	0xbc409c3b	-0.011755998
16	0x3bf0071f	0.0073250677
17	0xbbbbd12a	-0.0057317214
18	0xbcac4d22	-0.021032874
19	0xbc179434	-0.009251643
20	0xbc013af7	-0.0078875935
21	0xbc46dc03	-0.012137416
22	0xbcbd020f	-0.02307227
23	0xbcae1467	-0.021249963
24	0x3b37754c	0.0027993498
25	0xbc9f5c7a	-0.019453276
26	0x3a9aa834	0.0011799396
27	0x3bee81ca	0.0072786557
28	0xbc15eb36	-0.009150317
29	0xbbee12fc	-0.0072654467
30	0xbc96e8a8	-0.018421486
31	0xbc12c93c	-0.008959111
32	0x3c2c73c5	0.0105256485
33	0x3c60c3ea	0.013718585
34	0x399f2c81	0.0003036
35	0xbcb2c0e2	-0.02182049
36	0xbbabe59b	-0.005245877
37	0xbc45f442	-0.012082161
38	0x3c826076	0.015915137
39	0x3c5af2da	0.013363564
40	0xbc0a2232	-0.008431004
41	0x3ba18c0f	0.0049300264
42	0xbb7a3853	-0.0038180545
43	0xbc881321	-0.016610684
44	0x3af47528	0.0018650638
45	0x3cd6b002	0.026206974
46	0x3cf2f1c4	0.029656298
47	0x3c5cecdc	0.013484206
48	0xbc900502	-0.017580513
49	0xbd06ac56	-0.032879196
50	0xbcec5add	-0.02885192
51	0xbb05892f	-0.0020375957
52	0x3cc597de	0.024120267
53	0x3c317f78	0.010833614
54	0x3bb6ee15	0.005582581
55	0xbc9b23b4	-0.018937923
56	0xbcc34284	-0.023835428
57	0x3937b6e2	0.00017520369
58	0x3c63afa1	0.013896854
59	0x3ce9c228	0.028534964
60	0x3c2e848e	0.010651721
61	0xbc9891e9	-0.018624263
62	0xbc95a5f0	-0.018267602
63	0x3b9dced6	0.0048159165
64	0x3cb6a993	0.022297656
65	0x3bfa7c7f	0.0076442356
66	0xba2db847	-0.0006626886
67	0xbc6a16b8	-0.014287643
68	0xbc0e1193	-0.008671182
69	0xbc0bd466	-0.008534526
70	0x3c5e1402	0.013554575
71	0x3bda96fe	0.0066708317
72	0xbc658ff2	-0.01401137
73	0xbc4c976c	-0.012487274
74	0xbd05ebce	-0.032695584
75	0xbbfd08e0	-0.0077220052
76	0xbb94732b	-0.0045303307
77	0x3ba09936	0.0049010767
78	0xbbcae068	-0.006191302
79	0xbc029383	-0.00796974
80	0xb9f0ba6d	-0.00045915265
81	0xbb8fc1fc	-0.0043871384
82	0xbb09c59e	-0.002102233
83	0xbb41efaa	-0.0029592314
84	0xbc91de57	-0.017806215
85	0xbaf8ab3b	-0.0018971929
86	0xbbca5d36	-0.0061756624
87	0xbbf52109	-0.0074807447
88	0x3c8c7eb3	0.017150259
89	0xba0fa50a	-0.000547961
90	0xbbb0050d	-0.005371696
91	0xbb98f0fe	-0.0046674004
92	0x3ba2cd74	0.0049683396
93	0xbba2b259	-0.0049651084
94	0x3c72c6a7	0.01481787
95	0xbbb76896	-0.0055971844
96	0x3c11db91	0.008902446
97	0x3bfc5af4	0.007701272
98	0xbc90c90e	-0.017673995
99	0x3c3c867e	0.011506675
100	0xbcbcb781	-0.02303672
101	0xbd0d376c	-0.034476683
102	0xbb858fab	-0.0040759644
103	0xbcc1ac2a	-0.023641665
104	0x3c5b8c19	0.013400101
105	0xbd0461ca	-0.03231982
106	0xbcb8fa08	-0.022580162
107	0xbd1826e6	-0.03714647
108	0xb9c4300e	-0.00037419837
109	0x3c438956	0.011934599
110	0xbca66ee3	-0.020316547
111	0xbc5b1066	-0.013370609
112	0xbc34a0ce	-0.011024667
113	0x3b8542ef	0.004066817
114	0x3c08e752	0.008355932
115	0x3c42bfd6	0.011886558
116	0xbca42da4	-0.020041294
117	0x3c10ef30	0.008846089
118	0x3c72053e	0.014771758
119	0x3b039348	0.00200768
120	0x3cbb196a	0.022839267
121	0x3c92d6b5	0.017924646
122	0x3c9548f2	0.01822326
123	0xbb572dbf	-0.0032833663
124	0xbafb4386	-0.0019169904
125	0xbcc35144	-0.023842461
126	0xbc95be61	-0.018279256
127	0xbc382a8b	-0.011240612
128	0x3c3ab5dc	0.011395898
129	0x3c81029b	0.015748313
130	0xb9679f0c	-0.00022089126
131	0xbbb0c624	-0.005394714
132	0x3c879c21	0.01655394
133	0x3cca923d	0.024727935
134	0x3cda68cc	0.0266613
135	0x3cd28fcf	0.025703339
136	0x3ccfce10	0.025366813
137	0x3ce55e6c	0.027999125
138	0x3c4a1455	0.012333949
139	0x3c3c1664	0.011479948
140	0x3c5a1b4e	0.013312174
141	0x3b3de1e7	0.002897376
142	0x3bedb30b	0.0072540096
143	0x3b5c8660	0.003364943
144	0x3af91012	0.0019001982
145	0xbb5a8a08	-0.0033346433
146	0xbc5bb73e	-0.013410388
147	0xbc759ebb	-0.014991458
148	0xbca451b6	-0.020058494
149	0xbc9f0f80	-0.01941657
150	0xbcc2bc92	-0.023771558
151	0xbbaa321f	-0.005193963
152	0xba8f668c	-0.0010940596
153	0x3c82c3d1	0.015962513
154	0x3d0b1f0e	0.033965163
155	0x3d22bea8	0.039732605
156	0x3c8b7662	0.017024223
157	0xba86f671	-0.0010296834
158	0xbc8b5e54	-0.017012753
159	0xb96fdbb4	-0.00022874662
160	0x3cc54a12	0.024083171
161	0xbb156abc	-0.0022799214
162	0x3b6498ac	0.0034881039
163	0x3c6edc57	0.0145789
164	0x3cb30513	0.021853006
165	0xbb8431fe	-0.00403428
166	0x3c32ecd0	0.010920718
167	0xbb800ac5	-0.003907534
168	0xbc2713ec	-0.010197621
169	0xbc14abb2	-0.0090741385
170	0xbb706d28	-0.0036686156
171	0xbcc412ec	-0.023934804
172	0xbcc7a875	-0.024372319
173	0xbd069d25	-0.03286471
174	0xbccce12e	-0.025009718
175	0x3bf37f2e	0.0074309325
176	0xbba9e5cf	-0.005184866
177	0xbb841657	-0.0040309834
178	0xbb361e50	-0.0027789064
179	0xbbd6744f	-0.006544627
180	0x3bbafb88	0.0057062544
181	0x392feb6a	0.00016776999
182	0x3bb79d99	0.005603504
183	0x3c00f791	0.007871524
184	0x3a0add9f	0.00052973063
185	0xbba60b3c	-0.005067257
186	0xba7c93cf	-0.00096350623
187	0x3c19600d	0.009361279
188	0xbbc51fca	-0.0060157524
189	0xbc88b90c	-0.0166898
190	0x3c2138ef	0.009840234
191	0x3bcac92d	0.006188533
192	0x3c3472e7	0.011013723
193	0xbb8d0a68	-0.004304219
194	0xbb2d5eba	-0.0026454167
195	0x3c7718d1	0.0150816
196	0x3cb7032f	0.022340385
197	0x3c112605	0.008859162
198	0x3b40055b	0.0029300067
199	0x3c7189e4	0.014742348
200	0x3d086888	0.033302814
201	0x3c4ed753	0.0126245795
202	0x3bbc54f4	0.005747432
203	0x3bf1c55e	0.0073782643
204	0xbc094f94	-0.008380789
205	0x3c040e25	0.008060013
206	0x3c3a377f	0.01136577
207	0x3c0e4c2c	0.008685153
208	0xbc8bedf5	-0.01708124
209	0xbcc3ee7b	-0.023917427
210	0xbb9667ba	-0.004590002
211	0x3ac25b20	0.0014828183
212	0x3c800194	0.015625753
213	0xbb1f11f0	-0.0024272166
214	0xbca2bbb5	-0.019864896
215	0xbcb9774d	-0.022639895
216	0xbc5fa0e6	-0.013649201
217	0x3b5fbfb0	0.0034141354
218	0x3b2c9814	0.0026335763
219	0x3c8ca9dd	0.01717084
220	0x3c2db908	0.010603197
221	0x3ceb1ed6	0.028701227
222	0xbbc4f25d	-0.0060103373
223	0xbc0f2b53	-0.008738357
224	0x3b9d561d	0.0048015253
225	0x3c5ece44	0.013598982
226	0xbb4486ca	-0.0029987567
227	0xbcfd1614	-0.030894317
228	0xbc28063f	-0.010255395
229	0xbcea034d	-0.028566027
230	0x3cb55994	0.02213744
231	0x3ce851f3	0.028359389
232	0xbbafbd82	-0.0053631673
233	0xbad5fcba	-0.0016325929
234	0xbbd28673	-0.006424719
235	0xbcc5c72e	-0.024142828
236	0x3c18a0bc	0.009315666
237	0x3ca7e422	0.020494524
238	0xbadd3828	-0.0016877698
239	0x3ba5670f	0.005047686
240	0x3c847c80	0.016172647
241	0x3a6eec06	0.000911415
242	0x3b0c9d44	0.0021456042
243	0xbc074500	-0.008256197
244	0x3b0b62db	0.002126864
245	0x3cb28965	0.02179403
246	0xbc08fe11	-0.008361355
247	0xbca27fc6	-0.019836318
248	0xbc13c6d5	-0.009019573
249	0x3ba1a2e3	0.0049327477
250	0x3cace6b2	0.021106098
251	0x3c4dc28b	0.01255859
252	0x3c270987	0.010195143
253	0x3b950b29	0.0045484495
254	0x3cd3b510	0.025843173
255	0x3b918ace	0.0044415956

conv1.4.weight f4 [32]
0	0x3e02d364	0.12775952
1	0x3deb2727	0.11482077
2	0x3deee8b0	0.11665475
3	0x3e0d6401	0.1380768
4	0x3e0a6caf	0.13518022
5	0x3e0e1f9e	0.13879248
6	0x3e13aced	0.14421435
7	0x3dcf9536	0.101358816
8	0x3dc3d106	0.095613524
9	0x38722a9d	5.7736983e-05
10	0x3df88ea9	0.12136585
11	0x3e2947ec	0.16531342
12	0x3e0d6b12	0.13810375
13	0x3e0811b0	0.13287997
14	0x3e1bac07	0.15202342
15	0x3e1709cd	0.14749832
16	0x3e11bd26	0.1423231
17	0x3df63b89	0.12023074
18	0x3deae379	0.11469168
19	0x3e1aa88f	0.15103363
20	0x3df8868d	0.121350385
21	0x3e337faf	0.17529176
22	0x3e19c4ef	0.1501653
23	0x3e4093c8	0.18806374
24	0x3e11776a	0.14205709
25	0x3e02e62c	0.12783116
26	0x3e1a336d	0.1505868
27	0x3e0b7305	0.13618095
28	0x3e170569	0.14748158
29	0x3deec3f3	0.11658468
30	0x3dfa8e72	0.122342005
31	0x3e11812a	0.14209428

conv1.4.bias f4 [32]
0	0xbd72a44b	-0.059238713
1	0xbd0adbfc	-0.0339012
2	0xbd301c54	-0.042995766
3	0xbd812ddb	-0.06307574
4	0xbda9fb7d	-0.08299921
5	0xbd96ac57	-0.0735709
6	0xbd07675f	-0.033057567
7	0xbcd1deb8	-0.025618896
8	0xbd4ccab2	-0.049997993
9	0xba78b41f	-0.00094872894
10	0xbc607908	-0.013700731
11	0xbd961790	-0.07328713
12	0xbdb9c5b8	-0.09070915
13	0xbd111b2b	-0.0354263
14	0xbcf4d920	-0.02988869
15	0xbdae2f9c	-0.085051745
16	0xbd8e1c39	-0.06938977
17	0xbd37952a	-0.04481999
18	0xbdcd4fd4	-0.10024992
19	0xbd56f302	-0.052477844
20	0xbd8b320f	-0.06796657
21	0xbde7902b	-0.11306795
22	0xbe06ffe0	-0.13183546
23	0xbd8fccf5	-0.07021514
24	0xbcd61720	-0.026134074
25	0xbd985af5	-0.07439224
26	0xbdf875ce	-0.121318445
27	0xbd4168ce	-0.04721909
28	0xbd3df71f	-0.04637825
29	0xbdb7d3ca	-0.089759424
30	0xbdb51d50	-0.088434815
31	0xbdc96c88	-0.09835154

conv1.4.running_mean f4 [32]
0	0xbd1ea446	-0.038730882
1	0x3d2663d5	0.04062255
2	0xbd3dd826	-0.046348713
3	0xbae3ab55	-0.0017369787
4	0xbcc1a7c8	-0.023639575
5	0x3ccf4539	0.025301563
6	0x3c8d60b6	0.01725803
7	0x3b6bb964	0.0035968656
8	0xbd86848c	-0.0656825
9	0x3a67f270	0.00088480767
10	0xbcf508ea	-0.029911477
11	0xbd0bf151	-0.034165684
12	0xbbb48537	-0.0055090445
13	0xbce7e40a	-0.02830698
14	0xbcde9701	-0.027171614
15	0xbd08f9fb	-0.033441525
16	0xbdb4cdfd	-0.08828352
17	0xbcd501b5	-0.02600179
18	0x3d8142d1	0.06311572
19	0xbd3c848d	-0.046024848
20	0xbcd7ec51	-0.026357802
21	0xbd13229a	-0.03592167
22	0xbd867843	-0.06565907
23	0x3c829fb4	0.015945293
24	0xbcb8ddc4	-0.022566684
25	0xbd8ffe6f	-0.07030951
26	0xbd1d8026	-0.03845229
27	0xbd20eddc	-0.03928934
28	0xbd64265e	-0.055700652
29	0xbd306033	-0.043060493
30	0xbd06c1ee	-0.03289979
31	0xbd5f754b	-0.05455522

conv1.4.running_var f4 [32]
0	0x3b3d0335	0.0028841023
1	0x3a3c7186	0.0007188547
2	0x3b3eccb5	0.0029113714
3	0x3b0d53d7	0.0021564865
4	0x3b590560	0.0033114776
5	0x3b143800	0.0022616386
6	0x3b23d23b	0.0024997133
7	0x39aec21a	0.00033332483
8	0x3aa96ba0	0.0012925752
9	0x357bb4e0	9.3767994e-07
10	0x3b233554	0.0024903612
11	0x3b7ea3bf	0.0038854924
12	0x3b131e57	0.0022448504
13	0x3b4996a8	0.0030759964
14	0x3b771b07	0.0037705319
15	0x3b00e36f	0.001966681
16	0x3b5661ff	0.0032712219
17	0x3b09d238	0.002102984
18	0x3a64df1d	0.0008730756
19	0x3b347f0e	0.002754155
20	0x3b1e9db9	0.0024202897
21	0x3b70d6f1	0.0036749209
22	0x3b3f4f3f	0.0029191521
23	0x3ba5d6f6	0.0050610257
24	0x3b37ceee	0.0028046924
25	0x3ad86bf5	0.0016511666
26	0x3b38bb65	0.0028187868
27	0x3b44b5db	0.003001562
28	0x3b41c542	0.0029567038
29	0x3a92a399	0.0011187672
30	0x3adff10c	0.0017085387
31	0x3b07ce29	0.0020722246

conv2.0.weight f4 [64, 32, 3, 3]
0	0xbd04df16	-0.032439314
1	0xbd4949ff	-0.049142834
2	0xbcdc25c8	-0.026873484
3	0xbcabe23d	-0.020981902
4	0xbc0b39ba	-0.00849765
5	0xbc464c8f	-0.012103214
6	0xbce6987a	-0.028148878
7	0x3af74f5f	0.0018868259
8	0x3cc19f64	0.023635574
9	0xbc2bf31f	-0.010494976
10	0xbc291d60	-0.010321945
11	0xbc0fac88	-0.008769162
12	0xbc303acd	-0.010756207
13	0xbc1778da	-0.009245122
14	0xbc4ba43a	-0.012429291
15	0xbc672886	-0.014108783
16	0xbb9cbb77	-0.0047830897
17	0xbb287ca8	-0.0025709067
18	0x3b55c945	0.0032621187
19	0xbc9d7e0f	-0.019225148
20	0xbce42142	-0.02784789
21	0x3c510c55	0.012759288
22	0xbbba3ea5	-0.0056837373
23	0x3be5f417	0.007017623
24	0xba776735	-0.00094376813
25	0x3c792158	0.015205704
26	0x3d216432	0.039402194
27	0xbc8c5c73	-0.017133927
28	0xbc7cc72f	-0.015428348
29	0x3ceca623	0.028887814
30	0xbbd88c29	-0.0066085053
31	0x3bf8f991	0.00759811
32	0x3c849f0a	0.016189117
33	0x3b3e451f	0.0029032899
34	0x3a1b4484	0.00059229904
35	0x3ccb3008	0.024803177
36	0x3bcdc5b5	0.006279672
37	0x3c71cc2f	0.014758154
38	0x3c028226	0.0079656
39	0x3c112190	0.0088581
40	0x3c9c8b13	0.019109285
41	0x3b1fb487	0.0024369077
42	0xbc9cbca5	-0.019132921
43	0xbc327843	-0.01089293
44	0xbd4c3979	-0.049859498
45	0x3ce2d793	0.027690684
46	0xbab810a9	-0.0014043051
47	0xbc1467a7	-0.009057916
48	0xbba91c6f	-0.0051608603
49	0xbc30859d	-0.010774043
50	0xbc82d231	-0.015969368
51	0xbaa38020	-0.0012474097
52	0x3c853c95	0.01626424
53	0xbc367755	-0.011136849
54	0x3cb1d7a7	0.021709276
55	0x3c83b95a	0.016079593
56	0x3b5cef84	0.0033712098
57	0x3c72c1be	0.0148167
58	0x3ca0c5f2	0.019625638
59	0xb83846b9	-4.3934884e-05
60	0x3be28a47	0.0069134566
61	0x3a91e08b	0.0011129541
62	0xbca5d325	-0.020242283
63	0xbb2326ff	-0.002489507
64	0x3c229ec6	0.00992555
65	0xb9d1c6c4	-0.00040011678
66	0x3bb01c54	0.0053744707
67	0x3a52a8fb	0.00080360443
68	0x3ba07eb5	0.004897917
69	0xbb6171ad	-0.0034400031
70	0xbc35abfd	-0.0110883685
71	0x3b80356a	0.0039126175
72	0x3b632b65	0.0034663316
73	0xb90d1c95	-0.00013457455
74	0xbbbfc9f1	-0.0058529307
75	0x3c9bcfb1	0.019019933
76	0x3c33f109	0.01098276
77	0x3c1b0183	0.00946081
78	0x3b797f4c	0.003807026
79	0x3cc80091	0.024414333
80	0x3d4ab287	0.049486663
81	0xb93d3074	-0.00018042495
82	0xb9fe07f1	-0.00048452572
83	0xbaa3db11	-0.00125012
84	0x3a1912c5	0.00058392837
85	0x3a7ccb02	0.00096432876
86	0xba80d386	-0.0009828664
87	0x39ec1c9a	0.00045034738
88	0xb96417a8	-0.00021752587
89	0xbac1c087	-0.0014782109
90	0x3ca0eb2b	0.019643387
91	0x3a8e0c9a	0.0010837496
92	0xbb9ea08f	-0.0048409174
93	0x3a79b2a5	0.00095252163
94	0xbc3a3c95	-0.011366983
95	0xbd2c8cad	-0.042126346
96	0x3c16e064	0.009208772
97	0xbc9ee128	-0.019394472
98	0xbd24cfb8	-0.04023716
99	0xbc82f499	-0.015985774
100	0xbb4cf69a	-0.0031274916
101	0x3ca0eb2e	0.019643392
102	0xbd195c57	-0.037441578
103	0x3ac865e4	0.0015289155
104	0x3c3d1157	0.011539779
105	0xbc8c501e	-0.017128047
106	0x3c321aed	0.010870677
107	0xbb9ae7f7	-0.0047273594
108	0x3c48d6c0	0.012258232
109	0x3b2ffc81	0.0026853385
110	0x3c9c37d2	0.019069586
111	0xbcaa5679	-0.020793187
112	0xbca70e26	-0.020392489
113	0xbb863dc7	-0.00409672
114	0xbc8abc92	-0.01693562
115	0xbc639ac6	-0.013891881
116	0xbcc91519	-0.024546193
117	0x3c32852a	0.010896007
118	0x38795695	5.9446862e-05
119	0xbc77f328	-0.015133657
120	0x3b923a25	0.004462498
121	0xbc8fe416	-0.017564815
122	0xbb0a7698	-0.0021127816
123	0x3ce7cf38	0.028297052
124	0xbc7250ca	-0.014789769
125	0x3bc4dabd	0.006007521
126	0x3cf880d1	0.030334862
127	0xbc3f6dc0	-0.011683881
128	0xbd1786a8	-0.036993653
129	0xbd036e95	-0.03208788
130	0xbc8bf828	-0.017086104
131	0xbc85f296	-0.016351026
132	0xbd163bd8	-0.036678165
133	0xbc198c73	-0.009371865
134	0xbd13918f	-0.036027487
135	0xbb30f713	-0.0027002736
136	0xbcd05684	-0.025431879
137	0xbc6cdbad	-0.014456672
138	0x3c2eaef2	0.010661827
139	0x3c72deb2	0.0148236025
140	0x3b9d3613	0.004797706
141	0xbb8ce392	-0.0042995894
142	0x3c380b70	0.011233196
143	0x3c6c09cf	0.014406635
144	0xbc997229	-0.018731194
145	0x3cab1d84	0.020888098
146	0xbc001e6f	-0.007819756
147	0x3c8e7648	0.017390385
148	0x3bc3ea58	0.0059788637
149	0xbbdf2393	-0.0068096607
150	0xbc83d0d7	-0.016090794
151	0xbd33eed5	-0.04392894
152	0xbd6497ec	-0.055808946
153	0x3cc10a46	0.02356447
154	0x3ca446b5	0.020053247
155	0x3cc61288	0.024178758
156	0x3b0c7748	0.0021433402
157	0xb9c80959	-0.00038153937
158	0x3b0a2db3	0.0021084368
159	0xbc98d153	-0.018654501
160	0xbc408674	-0.011750806
161	0xbca0327f	-0.019555328
162	0x3b557fc9	0.0032577387
163	0xbba74f8b	-0.005105918
164	0xbcb35cbc	-0.021894805
165	0x3d21c7e1	0.03949726
166	0x3b42e877	0.002974061
167	0xbc1f6ff5	-0.0097312825
168	0x3cea64f1	0.028612586
169	0xbbe97633	-0.007124686
170	0xbb3cde25	-0.0028818932
171	0xbd35d721	-0.044394616
172	0xbc812b10	-0.015767604
173	0x3b40e522	0.0029433449
174	0xbc4a772b	-0.012357513
175	0xba5f5439	-0.0008519325
176	0x3b8b2b63	0.0042471155
177	0xbccc5faa	-0.02494796
178	0xbc41ff03	-0.011840585
179	0xba978c54	-0.0011562207
180	0xbc8a253d	-0.01686346
181	0xbcb4cc85	-0.022070179
182	0x3a8c16e7	0.0010687978
183	0xbd157f52	-0.036498375
184	0xbd0c668f	-0.034277495
185	0xbc24c5f5	-0.010056962
186	0xbcbc1a8a	-0.022961874
187	0xbcbc1b55	-0.022962252
188	0xbcdb16cc	-0.026744269
189	0x3b841444	0.004030736
190	0xbc7cf124	-0.015438352
191	0xbd98bcb5	-0.07457868
192	0x3c7eacf0	0.015544161
193	0xbca8d626	-0.020609926
194	0xbd00e385	-0.03146698
195	0x3bb7355c	0.0055910777
196	0xbce04e06	-0.027380954
197	0xbd3bd4a6	-0.045857094
198	0x3b88eb62	0.0041784504
199	0xbcb23227	-0.02175243
200	0xbd0408e7	-0.032235052
201	0x3b6520e2	0.0034962227
202	0x3c13a0fe	0.0090105515
203	0x3bbd32c9	0.0057738763
204	0xbcf09e52	-0.029372368
205	0xbc0b8e98	-0.008517884
206	0xbce9cae6	-0.028539132
207	0x3d9b9d51	0.07598365
208	0xbb3219ae	-0.002717595
209	0xbcc6b931	-0.024258228
210	0x3d1da381	0.038486008
211	0xbc252bf2	-0.010081278
212	0xbc1607b1	-0.009157107
213	0x3b562605	0.003267647
214	0x3be7d6b1	0.0070751538
215	0xbb1ffce1	-0.0024412202
216	0xbbc8440c	-0.0061116274
217	0xbd0fbc95	-0.035091955
218	0xbcbc18cc	-0.022961043
219	0x3b3bdd2b	0.0028665762
220	0xbb86a5b7	-0.00410911
221	0x3be12f0f	0.006872065
222	0xbc86d7a8	-0.016460255
223	0xbd0e772d	-0.034781624
224	0x3c5c2ce6	0.013438439
225	0xbceb070d	-0.028689886
226	0xbcd3a91c	-0.025837474
227	0x3b0a2a17	0.0021082216
228	0xbc0d2f24	-0.008617196
229	0xbc0eb87b	-0.008710976
230	0x3b2ea96e	0.002665128
231	0x3920f48e	0.00015349893
232	0x3ca622bb	0.020280233
233	0xbc1a0e79	-0.009402865
234	0x3c894890	0.016758233
235	0x3ab40e0b	0.0013737095
236	0xbd1201e7	-0.035646345
237	0x3c168b1f	0.0091884425
238	0x3c68069d	0.014161733
239	0x3d227237	0.039659705
240	0xbb5a12c0	-0.0033275336
241	0xbabfd386	-0.0014635182
242	0x3d190050	0.037353814
243	0x3c8eba4e	0.017422821
244	0x3bd29ce7	0.0064273956
245	0xbb989e9a	-0.0046575787
246	0x3c2f7757	0.010709605
247	0x3cb3a45f	0.021928964
248	0x3bb38866	0.0054789064
249	0xbc7be39d	-0.015374091
250	0x3c81bbab	0.015836557
251	0xba29d3e8	-0.0006478415
252	0x3ba91fe6	0.0051612733
253	0x3b4fd0df	0.003171019
254	0x3b021271	0.0019847418
255	0xbbc82185	-0.0061075115

conv2.1.weight f4 [64]
0	0x3de4aef2	0.11166181
1	0x3ded6fe0	0.11593604
2	0x3e08ced6	0.13360152
3	0x3db1416e	0.08655058
4	0x3deab71c	0.114607066
5	0x3e1c0652	0.15236786
6	0x3df4a18e	0.119448766
7	0x3ddefbfc	0.10887906
8	0x3dc135e3	0.09434106
9	0x3dec317a	0.115328744
10	0x3de459ff	0.11149978
11	0x3ddd981f	0.108200304
12	0x3e08b343	0.13349633
13	0x3de8a4d5	0.11359564
14	0x3db7c64b	0.08973368
15	0x3db4bc01	0.088249214
16	0x3de08f19	0.10964794
17	0x3dd602d4	0.10449758
18	0x3dddc0fd	0.10827825
19	0x3dd4f11a	0.10397549
20	0x3e0446b0	0.1291759
21	0x3e019e0e	0.1265795
22	0x3e127719	0.14303245
23	0x3e15d86d	0.14633341
24	0x3e17a870	0.14810348
25	0x3dda5dbc	0.1066241
26	0x3dee8ee4	0.11648348
27	0x3e06f4e3	0.13179354
28	0x3dfbcec5	0.122952975
29	0x3e2e1c63	0.17003016
30	0x3e0b04d7	0.13576065
31	0x3de1b1e2	0.110202566
32	0x3df827f5	0.12116996
33	0x3e049b6e	0.12949917
34	0x3dead954	0.11467233
35	0x3de99ea3	0.11407211
36	0x3e05b31b	0.13056605
37	0x3e095bb4	0.13413888
38	0x3e1b4a67	0.15165101
39	0x3e186e1a	0.1488575
40	0x3df83d40	0.121210575
41	0x3ddf5cd5	0.10906378
42	0x3df3f75d	0.11912415
43	0x3de72d2c	0.11287913
44	0x3e0cc61c	0.13747448
45	0x3e0893a2	0.13337567
46	0x3e226e26	0.15862331
47	0x3e0c50b9	0.13702668
48	0x3df4acc4	0.11947015
49	0x3dc35965	0.09538535
50	0x3de8806d	0.1135262
51	0x3e15948a	0.14607444
52	0x3dcb6c2d	0.09932742
53	0x3e00929a	0.12555924
54	0x3dff552d	0.12467418
55	0x3db09cfc	0.086236924
56	0x3defa0c5	0.11700586
57	0x3df123d7	0.11774414
58	0x3e0f63a1	0.14002849
59	0x3e393d59	0.18089809
60	0x3db566f5	0.08857528
61	0x3dc48708	0.09596068
62	0x3dd47e8f	0.10375702
63	0x3dcad181	0.09903241

conv2.1.bias f4 [64]
0	0xbd54bccb	-0.05193786
1	0xbd5e4883	-0.05426837
2	0xbdb42751	-0.087965615
3	0xbd46b20e	-0.04850965
4	0xbd8673d4	-0.06565061
5	0xbe11a7d6	-0.1422418
6	0xbda0a318	-0.07843608
7	0xbd937238	-0.0719952
8	0xbd0237bd	-0.031791437
9	0xbd9c38c6	-0.07628016
10	0xbdacceec	-0.08437905
11	0xbd599089	-0.053116355
12	0xbd8a0597	-0.067393474
13	0xbd7cfbd6	-0.061763607
14	0xbd66d2ec	-0.056353495
15	0xbd7a0450	-0.06103927
16	0xbd889072	-0.06668176
17	0xbd48e8b9	-0.049050067
18	0xbd82a861	-0.06379772
19	0xbda80257	-0.08203571
20	0xbda542f6	-0.080694124
21	0xbda4573a	-0.0802445
22	0xbd8a5741	-0.067549236
23	0xbdb8d8f1	-0.09025753
24	0xbdaff4ea	-0.085916355
25	0xbd6c9f4b	-0.0577691
26	0xbd75ae92	-0.059980936
27	0xbd95765b	-0.07297965
28	0xbda86c35	-0.08223764
29	0xbd96d04a	-0.07363947
30	0xbdbeda26	-0.09318952
31	0xbdd29740	-0.10282755
32	0xbdc2467a	-0.094860986
33	0xbd0146ff	-0.031561848
34	0xbdb7fe6a	-0.089840725
35	0xbd372df3	-0.044721555
36	0xbda9d373	-0.08292284
37	0xbe049d60	-0.12950659
38	0xbd81a2ab	-0.063298546
39	0xbe0e8725	-0.13918741
40	0xbd953f0f	-0.07287418
41	0xbdaac24c	-0.083378404
42	0xbd910fcf	-0.070830934
43	0xbd5fda26	-0.054651402
44	0xbd98605a	-0.074402526
45	0xbdc35c8e	-0.09539138
46	0xbd732684	-0.059362903
47	0xbdf98cdd	-0.12185071
48	0xbd4ef911	-0.050530497
49	0xbd24ce5a	-0.040235855
50	0xbdb4d2a9	-0.08829243
51	0xbdc72402	-0.09723665
52	0xbd0c10a5	-0.03419556
53	0xbdad6eb8	-0.084683836
54	0xbd0355e5	-0.032064337
55	0xbd151ffc	-0.036407456
56	0xbde507f2	-0.11183156
57	0xbd9b7de7	-0.07592373
58	0xbd739d8a	-0.059476413
59	0xbe0ad132	-0.13556364
60	0xbd08576f	-0.03328651
61	0xbd8b8113	-0.06811728
62	0xbd29aee1	-0.041426543
63	0xbd3ef5ea	-0.04662124

conv2.1.running_mean f4 [64]
0	0xbd963b64	-0.073355466
1	0xbd32c0d5	-0.04364093
2	0xbd57e1ae	-0.05270546
3	0xbd3600a4	-0.044434205
4	0xbd02c263	-0.031923663
5	0xbcd4aacd	-0.02596035
6	0xbc9f66db	-0.019458225
7	0xbafc909b	-0.001926917
8	0xbcaa90eb	-0.020821055
9	0xbc61d3b5	-0.013783385
10	0xbc576ec3	-0.013148966
11	0xbc173542	-0.009229006
12	0xbd4296db	-0.04750715
13	0xbd47a85b	-0.04874454
14	0x3c97f17e	0.01854777
15	0xbc765749	-0.015035459
16	0xbc8789bc	-0.016545169
17	0xbc66f046	-0.014095372
18	0xbd3338db	-0.043755393
19	0x3c7a409d	0.015274194
20	0xbcee606c	-0.029098712
21	0xbd2b31df	-0.041795608
22	0xbdcc1fae	-0.0996698
23	0xbda37e0f	-0.07983028
24	0xbda4a63e	-0.08039521
25	0xbd86f238	-0.06589168
26	0xbd23e1e1	-0.040010337
27	0xbb05fbd3	-0.0020444288
28	0xbcbebd03	-0.023283487
29	0xbdd4e7d2	-0.10395779
30	0xbcb3e020	-0.021957457
31	0xbcb24828	-0.021762922
32	0xbd419062	-0.047256835
33	0xbd90c6b4	-0.070691496
34	0xbc7010fb	-0.014652486
35	0xbcf45428	-0.029825285
36	0xbd139a79	-0.03603599
37	0xbc1e28d0	-0.009653285
38	0xbd697e30	-0.057005107
39	0xbd04865d	-0.0323547
40	0xbcbcd05b	-0.02304857
41	0xbcc6fb71	-0.024289818
42	0xbd0bf5ee	-0.034170084
43	0xbcd6b427	-0.02620895
44	0xbd22fcc9	-0.039791856
45	0xbd117aaa	-0.035517372
46	0xbdd328c8	-0.10310513
47	0xbcf8c41e	-0.030366953
48	0xbcfa797f	-0.030575512
49	0xbca54c00	-0.020177841
50	0xbd691508	-0.056904823
51	0xbdc1fb36	-0.09471743
52	0xbb8db55e	-0.004324599
53	0xbce2ea6b	-0.02769967
54	0xbddafbc8	-0.10692555
55	0xbcf78394	-0.030214109
56	0x3adc1710	0.0016791541
57	0xbd6d95ab	-0.058004063
58	0xbc4dab90	-0.012553111
59	0xbd6579b8	-0.056024283
60	0xbc916be2	-0.017751638
61	0xbcc1b646	-0.023646485
62	0xbd21a482	-0.039463528
63	0xbd996217	-0.07489412

conv2.1.running_var f4 [64]
0	0x3b2430ee	0.0025053578
1	0x3ad6884c	0.0016367524
2	0x3b39e9e4	0.002836817
3	0x3a8ac229	0.0010586429
4	0x3a88e195	0.0010443205
5	0x3b310ba9	0.0027015007
6	0x3b0a9f91	0.0021152238
7	0x3ab7b8db	0.0014016883
8	0x3a9d7e36	0.0012015763
9	0x3a6b7903	0.0008982571
10	0x3a3362ef	0.00068430504
11	0x3b209415	0.0024502326
12	0x3b2e711d	0.0026617714
13	0x3b178530	0.0023120157
14	0x3aaecec1	0.0013336764
15	0x3a023644	0.00049671927
16	0x3a69c778	0.0008917968
17	0x3b23bd70	0.002498474
18	0x3acb6310	0.0015517194
19	0x3a5feee6	0.00085423735
20	0x3ae7dfe8	0.0017690631
21	0x3ad90c0b	0.0016559375
22	0x3b3228c3	0.002718494
23	0x3b69a377	0.003565041
24	0x3aebc3ca	0.0017987427
25	0x3ab4f163	0.0013804849
26	0x3b08b3e2	0.0020859172
27	0x3af92aef	0.0019009988
28	0x3adff301	0.0017085971
29	0x3b9586f7	0.004563208
30	0x3b1e66d5	0.002417018
31	0x3a919e98	0.0011109887
32	0x3b21ed9c	0.0024708277
33	0x3b62df87	0.0034618096
34	0x3ad31547	0.0016104364
35	0x3a59c63c	0.0008307432
36	0x3af2b50f	0.0018517094
37	0x3b23a8f4	0.002497253
38	0x3bae550b	0.0053201965
39	0x3b1d38f0	0.0023990236
40	0x3aeb6d02	0.0017961564
41	0x3a7d9956	0.0009674033
42	0x3ac3845e	0.0014916768
43	0x3a98aeae	0.0011648738
44	0x3b17817a	0.0023117946
45	0x3aec2330	0.0018015858
46	0x3b8139bd	0.0039436505
47	0x3ae31b5e	0.0017326882
48	0x3af0a4a5	0.0018359615
49	0x3992f901	0.00028032812
50	0x3abbc5a8	0.0014325874
51	0x3b889d5d	0.00416915
52	0x3b138cc1	0.0022514316
53	0x3aada7a2	0.0013248811
54	0x3b99ad96	0.0046898825
55	0x3b073cfb	0.0020635712
56	0x3ac32f44	0.0014891406
57	0x3b071487	0.00206116
58	0x3ba830b2	0.005132758
59	0x3b16963e	0.0022977735
60	0x39b2305c	0.00033986836
61	0x3a1000cd	0.00054932834
62	0x3b35a60b	0.0027717378
63	0x3ac8ac7a	0.0015310191

conv2.3.weight f4 [64, 64, 3, 3]
0	0xbccd0f09	-0.025031583
1	0xba7999f0	-0.00095215347
2	0x3b14e3e7	0.0022718848
3	0x3b09d653	0.0021032288
4	0xbc2ffdce	-0.010741664
5	0xbc0bf1e9	-0.008541563
6	0xbbebe5aa	-0.007199009
7	0xbc35b13f	-0.011089622
8	0xbc3a08b2	-0.011354612
9	0xbb840568	-0.004028965
10	0x3b29d2ac	0.0025912924
11	0xbc831472	-0.01600096
12	0x3aeedfef	0.0018224696
13	0x3c636ff0	0.013881668
14	0xbc3e9ad7	-0.011633596
15	0xb9b3389a	-0.00034183712
16	0x3b3ab685	0.0028490138
17	0x3cd2fffa	0.025756825
18	0x3bcc207b	0.006229458
19	0xb9b6c3b5	-0.00034859558
20	0xbb96788d	-0.0045920075
21	0xbc4f1a13	-0.012640494
22	0x3b31756e	0.002707805
23	0xbc9c0f95	-0.019050399
24	0xbcc81d8c	-0.024428152
25	0xbce3729d	-0.027764613
26	0xbd045af9	-0.03231332
27	0x3d182687	0.037146118
28	0x3c0bf76a	0.008542875
29	0x3b370ed1	0.0027932415
30	0x3c08d9aa	0.008352676
31	0xbaac4a4c	-0.0013144701
32	0x3caa4eb7	0.020789487
33	0x3c5f21c5	0.013618891
34	0x3b8adfbc	0.004238097
35	0xbade9816	-0.0016982581
36	0x3c51f7a0	0.012815386
37	0x3b57cef0	0.003292974
38	0x3c2f0fe0	0.010684937
39	0x3c156d48	0.009120293
40	0x3c000b84	0.007815246
41	0xbb87176f	-0.0041226665
42	0x3beeebae	0.007291279
43	0xbbea0dec	-0.007142773
44	0xbcb244bc	-0.02176129
45	0xbc5cf34e	-0.013485743
46	0xbcc1040c	-0.0235615
47	0xbc2109b1	-0.009828971
48	0xbc9cbe00	-0.019133568
49	0x3ae4b478	0.0017448803
50	0xbc3f2e09	-0.0116686905
51	0x3bca9a14	0.0061829183
52	0x3a280d12	0.0006410639
53	0xbc8b35fa	-0.016993511
54	0x3af1c5c1	0.0018445776
55	0x3c6ffb84	0.014647368
56	0xbb7c19be	-0.0038467492
57	0x3c8ff879	0.017574536
58	0xbc543a6d	-0.012953383
59	0xbc4965ca	-0.012292335
60	0xbc78e2e8	-0.015190817
61	0x3b3e3326	0.0029022186
62	0x3ad5e842	0.0016319829
63	0xbb61edef	-0.0034474095
64	0x3a83e0e1	0.0010061526
65	0xbc4e9b78	-0.012610309
66	0x3bc2bda1	0.0059430157
67	0x3c0b9a18	0.0085206255
68	0x3c71e095	0.014763017
69	0xbb060ce4	-0.002045446
70	0xba99d543	-0.001173653
71	0xbbc07b52	-0.005874076
72	0xbccb9809	-0.02485277
73	0xbc817b50	-0.01580587
74	0xbcd91832	-0.026500795
75	0xbc12a564	-0.008950565
76	0x39fa5725	0.00047748644
77	0x3c07af3c	0.008281525
78	0x3c32b3e1	0.010907144
79	0x3c51f802	0.012815477
80	0xbc046a08	-0.00808192
81	0xbb9ad82c	-0.0047254767
82	0x3c7d3070	0.015453443
83	0x3c9d2726	0.019183706
84	0xbc5546fd	-0.013017413
85	0xba4da354	-0.0007844467
86	0xbad2ed48	-0.0016092444
87	0xbcb5ff42	-0.022216443
88	0xbc8d7601	-0.017268183
89	0xbb075729	-0.0020651317
90	0xbca8fb1d	-0.020627553
91	0x3ad84016	0.0016498591
92	0x3bed6aa1	0.007245377
93	0xbbb124a4	-0.005405979
94	0x3c99bc51	0.018766554
95	0x3c8c63fe	0.017137524
96	0xbcb3bf77	-0.021941883
97	0x3b816ab3	0.003949487
98	0xbc5ce088	-0.013481267
99	0x3bb83a69	0.0056221974
100	0x3b44f616	0.0030053905
101	0x3caeeaba	0.02135216
102	0x3b50529c	0.003178752
103	0x3b6b81aa	0.003593544
104	0xbc1da5db	-0.009622063
105	0xbb9b9503	-0.004747988
106	0xbb8d14fb	-0.0043054796
107	0x3acdfc3d	0.0015715432
108	0x3b66d59c	0.0035222536
109	0x3cbda06a	0.02314778
110	0x3ce2bb50	0.027677208
111	0xbcc03acb	-0.023465535
112	0xbaae75d6	-0.0013310264
113	0x3c9a83a8	0.018861607
114	0xbcea7ff6	-0.02862547
115	0xbba878c3	-0.005141349
116	0x3ca7ce12	0.020484004
117	0x3d49ac4d	0.049236584
118	0x3be637fb	0.0070257164
119	0x3c835a04	0.016034134
120	0xbc0a7edf	-0.0084531
121	0xbc2fa735	-0.010721018
122	0x3b1c51d3	0.0023852482
123	0xbc2538b1	-0.010084317
124	0xbbb7c6e1	-0.005608425
125	0xbb6c9e6a	-0.0036105164
126	0xbd46182a	-0.04836289
127	0xbd125c88	-0.035732776
128	0xbc46d770	-0.012136325
129	0x3c4a9999	0.012365722
130	0xbc096432	-0.008385705
131	0xbc986e0d	-0.018607164
132	0x3c016015	0.007896443
133	0x3a4610a6	0.00075555814
134	0x3c53b2e9	0.0129210735
135	0xbc3d72a2	-0.011562975
136	0x39471bfc	0.00018988544
137	0xbbc34cda	-0.005960089
138	0xbc3f92cd	-0.011692715
139	0x3bc274a9	0.005934317
140	0x3c83c369	0.01608439
141	0x3c021f6d	0.007942063
142	0x3c4aad49	0.012370416
143	0x3c6c0d68	0.014407493
144	0xbcc35184	-0.02384258
145	0x3bfa0509	0.007629995
146	0xbca5d17b	-0.02024149
147	0xbc77552f	-0.015095993
148	0x3c449966	0.011999464
149	0x38d7c2f8	0.00010288315
150	0xbbb855ca	-0.005625461
151	0x3bc92d84	0.006139459
152	0x3c268fe5	0.010166143
153	0x3ba68516	0.005081783
154	0x3c33f98d	0.0109847905
155	0x3cc1811c	0.023621134
156	0x3c8ffe7b	0.0175774
157	0xbb0e5f08	-0.0021724124
158	0xbc055831	-0.008138702
159	0xbc262489	-0.010140547
160	0xbc2ef93d	-0.01067954
161	0x3b33a50c	0.0027411608
162	0x3b61dfa2	0.003446557
163	0xbc47ea77	-0.012201897
164	0x3c86b5b1	0.01644406
165	0x3c373a27	0.011183298
166	0xbc5783b3	-0.013153958
167	0x3c04b008	0.00809861
168	0x3b7cc2a8	0.0038568173
169	0xbc8a15a6	-0.016856026
170	0xbc722163	-0.014778468
171	0xbc3a2fa3	-0.011363897
172	0xbbffe11d	-0.007808818
173	0xbc4d283b	-0.012521799
174	0x3a3639c1	0.0006951355
175	0x3c1c0f32	0.009525107
176	0xbb71f119	-0.0036917387
177	0xbb8d11bd	-0.004305093
178	0x3c252cf2	0.010081517
179	0x3cc1fb08	0.023679271
180	0x3b1bc242	0.002376691
181	0x3be713dd	0.0070519284
182	0xba83c5b8	-0.0010053432
183	0x3c2fd6e9	0.010732391
184	0x3cf2789c	0.029598527
185	0x3bd8a325	0.006611245
186	0xbbf9702e	-0.00761225
187	0x3c03fc2f	0.008055731
188	0x3c01c3e2	0.007920237
189	0xbc50d613	-0.012746352
190	0x3ad0d2c9	0.001593196
191	0xbb0ce533	-0.0021498918
192	0x3cd34999	0.02579193
193	0x3c23f98a	0.010008225
194	0xbc484ed9	-0.01222583
195	0x3c60bbf8	0.01371669
196	0x3c0ba45d	0.008523074
197	0x38a58f2c	7.894481e-05
198	0x3b2b985d	0.0026183345
199	0x3c99ab37	0.0187584
200	0x3cd30444	0.02575887
201	0xbd0f2ce9	-0.03495494
202	0xbb6f5e2a	-0.0036524632
203	0x3c4cb19f	0.01249352
204	0xbcaa499b	-0.020787051
205	0x393f9981	0.00018272364
206	0x3c83b25c	0.01607626
207	0xbd14b0d8	-0.036301464
208	0xbbfb21b6	-0.0076639308
209	0xba1a25e9	-0.0005880283
210	0xbd2065bb	-0.039159518
211	0xbc380726	-0.011232173
212	0xbc6f747f	-0.014615177
213	0xbc7581dd	-0.014984575
214	0x3b7fb4ab	0.0039017599
215	0x3b261f1a	0.0025348128
216	0x39dd5132	0.000422129
217	0x3c2c7ac3	0.010527316
218	0xbc02b381	-0.007977367
219	0x3b15aaef	0.002283748
220	0x3c00f465	0.007870768
221	0xbc1c27bd	-0.009530959
222	0xbc777575	-0.0151036875
223	0xbc91d6cc	-0.017802618
224	0xbc78aa9a	-0.015177393
225	0x3c9e9c01	0.019361498
226	0x3c06248f	0.008187427
227	0xbbfb6912	-0.0076724375
228	0x3c58777d	0.013212082
229	0x3be5da9d	0.007014586
230	0xb9997574	-0.00029269943
231	0xbc49f66a	-0.012326816
232	0x3af1fdff	0.0018462538
233	0x3ba3a99b	0.004994584
234	0xbc95517d	-0.018227333
235	0xbcda7fcb	-0.026672265
236	0xbd0daa16	-0.034586035
237	0xbc95606d	-0.018234456
238	0xbbfa69c8	-0.0076420046
239	0xbcfce2d3	-0.030869877
240	0xbc48af4c	-0.012248825
241	0xbabb1277	-0.0014272471
242	0x3b96be4d	0.0046003223
243	0x3b8fdf3e	0.004390626
244	0x3b7f88b9	0.0038991405
245	0xbb79eaf0	-0.0038134418
246	0x3c6ee9d3	0.014582115
247	0xbb055fc0	-0.002035126
248	0xbb4eedc2	-0.003157482
249	0x3c564ffb	0.013080592
250	0xbb5ec455	-0.0033991535
251	0xbbae09e1	-0.0053112363
252	0xbc97d4b3	-0.01853404
253	0xbcbd4e29	-0.023108559
254	0xbcbbc5b0	-0.022921413
255	0xbbfb07d7	-0.0076608467

conv2.4.weight f4 [64]
0	0x3e177e67	0.14794312
1	0x3e15f1d2	0.14643028
2	0x3e10dd2f	0.14146875
3	0x3e1a4550	0.15065503
4	0x3e4a33a5	0.19746263
5	0x3e1b2824	0.15152031
6	0x3e3adb7f	0.18247794
7	0x3e2f12db	0.17097037
8	0x3e28ab34	0.16471559
9	0x3df555c0	0.11979246
10	0x3e2165e1	0.1576152
11	0x3ddf4bbe	0.109031186
12	0x3e65f14b	0.22455327
13	0x3e27ffb5	0.16406138
14	0x3decff1d	0.115720965
15	0x3e2aaf2d	0.16668387
16	0x3e2a3a5d	0.16623826
17	0x3df8ffb6	0.12158148
18	0x3e287c0e	0.16453573
19	0x3e1540bc	0.14575475
20	0x3e1151c2	0.14191344
21	0x3e245a84	0.16050154
22	0x3e2d32da	0.1691393
23	0x3e1720c0	0.14758587
24	0x3e1536a3	0.14571624
25	0x3e4f4678	0.20241725
26	0x3e27d393	0.16389303
27	0x3e4f6253	0.20252351
28	0x3e1050ee	0.14093372
29	0x3e0dd9a3	0.13852553
30	0x3e1dada4	0.1539827
31	0xbdfdd4ee	-0.12394129
32	0x3e24a04e	0.16076776
33	0x3e303b5b	0.17210142
34	0x3e05b7db	0.13058417
35	0x3e49b828	0.19699156
36	0x3e2e3c62	0.17015222
37	0x3e1d1070	0.15338302
38	0x3df49609	0.119426794
39	0x3e0596ef	0.13045858
40	0x3e257539	0.16157998
41	0x3e099b30	0.13438106
42	0x3e1fd991	0.15610339
43	0x3e19b69d	0.15011068
44	0x3e1e013b	0.15430157
45	0x3e2e79ce	0.17038652
46	0x3e10c446	0.14137372
47	0x3e092ba6	0.13395557
48	0x3e1416e5	0.14461859
49	0x3e0bd9aa	0.13657251
50	0x39b8902d	0.00035202634
51	0x3e125931	0.14291836
52	0x3e25d316	0.16193804
53	0x3e345686	0.17611131
54	0x3df41dd9	0.119197555
55	0x3e230d63	0.15923075
56	0x3e29ec99	0.16594161
57	0x3e174b33	0.1477478
58	0x3e407af0	0.18796897
59	0x3df1eaaa	0.11812337
60	0x3e189dad	0.14903899
61	0x3e39cbfe	0.18144223
62	0x3e15d03c	0.14630216
63	0x3e43ced7	0.19121872

conv2.4.bias f4 [64]
0	0xbd708edd	-0.058729995
1	0xbdb766ac	-0.0895513
2	0xbdb86b0e	-0.09004794
3	0xbd8632d3	-0.06552663
4	0xbe734906	-0.23758325
5	0xbddff875	-0.10936061
6	0xbe37819e	-0.17920539
7	0xbdef8edd	-0.11697171
8	0xbdec4346	-0.11536269
9	0xbc421c2c	-0.011847537
10	0xbdde7940	-0.1086297
11	0xbca22ef2	-0.019797776
12	0xbe50db86	-0.20396242
13	0xbe0a754a	-0.13521305
14	0xbc226bb3	-0.009913373
15	0xbde86093	-0.11346545
16	0xbdaca82e	-0.08430515
17	0xbd05f9d1	-0.032708947
18	0xbd6aa28d	-0.057283927
19	0xbdbb9e63	-0.09161069
20	0xbd0ea185	-0.034822006
21	0xbe2fafd6	-0.1715692
22	0xbda79506	-0.08182721
23	0xbd83e389	-0.06439883
24	0xbe160585	-0.14650543
25	0xbe28115c	-0.16412872
26	0xbd43598d	-0.047692824
27	0xbe73b541	-0.23799612
28	0xbdaf8e87	-0.08572107
29	0xbdb28b7f	-0.08718013
30	0xbe124c23	-0.14286856
31	0xbcccbd7f	-0.024992703
32	0xbe576a29	-0.2103659
33	0xbdf1e818	-0.118118465
34	0xbd72793b	-0.059197646
35	0xbe3f320a	-0.18671432
36	0xbd1f5fba	-0.03890965
37	0xbdcecd5d	-0.10097764
38	0x3c3b6e13	0.011439818
39	0xbda8a0de	-0.08233808
40	0xbda2f535	-0.07956926
41	0xbd58baec	-0.052912638
42	0xbe1c833f	-0.15284441
43	0xbe14bf9d	-0.1452622
44	0xbd65f0e9	-0.056137953
45	0xbde7cdc0	-0.113185406
46	0xbdeb7034	-0.114960104
47	0xbcc0f29f	-0.02355319
48	0xbe1fa51a	-0.15590325
49	0xbcd1c645	-0.025607238
50	0xbad04a61	-0.0015891307
51	0xbc8d6083	-0.017257934
52	0xbdb5de32	-0.08880271
53	0xbd9c3e86	-0.07629113
54	0xbdd31ee7	-0.103086285
55	0xbe2c2199	-0.16809691
56	0xbdf19139	-0.11795277
57	0xbdbc4a0e	-0.09193812
58	0xbe6125c0	-0.21987057
59	0xbceb2634	-0.02870474
60	0xbda38c5d	-0.079857565
61	0xbdddf0d7	-0.10836952
62	0xbdb170d4	-0.086640984
63	0xbe50c420	-0.20387316

conv2.4.running_mean f4 [64]
0	0xbd19e862	-0.037575133
1	0xbcd75cdd	-0.026289398
2	0xbb9001ea	-0.0043947594
3	0xbc023a2e	-0.007948441
4	0xbd7047c8	-0.058662206
5	0xbce60708	-0.028079525
6	0xbd560800	-0.052253723
7	0xbd14b00b	-0.0363007
8	0xbd1abad5	-0.037775833
9	0x3c3c59e1	0.011496038
10	0xbca5318d	-0.02016523
11	0xbbd2919e	-0.0064260503
12	0xbd8b875b	-0.068129264
13	0xbc9e33e0	-0.019311845
14	0x3a91a1cf	0.0011110845
15	0xbd1b1155	-0.037858326
16	0xbd0185a4	-0.03162159
17	0xbc27689b	-0.010217811
18	0xbd1050df	-0.035233375
19	0xbcb06b6c	-0.021535598
20	0xbb89d819	-0.004206669
21	0xbd3e4023	-0.046447884
22	0xbd470dc9	-0.04859713
23	0xbd224363	-0.039615046
24	0xbd03e1a6	-0.032197617
25	0xbce5111e	-0.027962264
26	0xbb584f99	-0.0033006428
27	0xbd08f462	-0.033436187
28	0xbd270e85	-0.04078533
29	0x3bd511cc	0.0065023657
30	0xbd0d6d20	-0.034527898
31	0xbb75502e	-0.0037431824
32	0xbc98a297	-0.018632216
33	0xbcc17085	-0.023613224
34	0xbcd7195d	-0.026257211
35	0xbd8511ba	-0.06497522
36	0xbbe75d68	-0.0070606954
37	0xbcac5b8e	-0.02103975
38	0x3bf43447	0.007452521
39	0xbc2b8f24	-0.010471139
40	0xbcdb5d3d	-0.026777858
41	0xbbe92122	-0.0071145454
42	0xbd64745e	-0.05577504
43	0xbc93a792	-0.01802424
44	0xbd70e7c1	-0.058814768
45	0xbd3b8cad	-0.045788456
46	0xbcc50d3f	-0.024054168
47	0xbc5e00ab	-0.013549964
48	0xbc267795	-0.0101603465
49	0x39a2751b	0.00030986298
50	0xb89c34be	-7.448484e-05
51	0x3b218620	0.0024646595
52	0xbd0d26eb	-0.034460943
53	0xbcaf439c	-0.021394543
54	0x3bd66afd	0.0065435157
55	0xbd0ba796	-0.03409537
56	0xbc4091d0	-0.011753514
57	0xbd4a75f5	-0.0494289
58	0xbd3e9551	-0.046529118
59	0xbc627437	-0.013821653
60	0xbc7adc5d	-0.015311328
61	0xbd69ee67	-0.057112124
62	0xbbd3470b	-0.006447678
63	0xbd73951e	-0.05946838

conv2.4.running_var f4 [64]
0	0x3a169ea5	0.0005745686
1	0x39d8f134	0.0004137844
2	0x39a00f89	0.00030529153
3	0x39d407a9	0.00040441498
4	0x3a2c05ab	0.0006562124
5	0x39e32266	0.00043322443
6	0x3a2a3d41	0.0006494113
7	0x3a496267	0.00076822046
8	0x3a0ca997	0.0005365847
9	0x39410763	0.00018408666
10	0x3a309f0d	0.00067375676
11	0x39678a5b	0.00022081418
12	0x3aa53b52	0.001260618
13	0x39f05240	0.00045837648
14	0x3921626c	0.00015390821
15	0x39fe9838	0.00048560067
16	0x3a25f564	0.00063308165
17	0x39ba2977	0.00035507578
18	0x3a2e6705	0.00066529243
19	0x3a0e0cb0	0.00054187607
20	0x39ba5763	0.00035541793
21	0x39de84d5	0.00042442107
22	0x3a393c6a	0.00070661923
23	0x3a10d21e	0.0005524474
24	0x39caffcb	0.00038719023
25	0x3a41ae67	0.00073883537
26	0x3a480691	0.0007630373
27	0x3a6906b7	0.0008889245
28	0x3a09ef8b	0.000526183
29	0x399faa6c	0.00030453817
30	0x3a003916	0.0004891319
31	0x391d3780	0.00014993362
32	0x39b6b4a8	0.00034848345
33	0x3a5bceea	0.00083850196
34	0x394f8101	0.00019789116
35	0x3a6fb003	0.0009143354
36	0x3a4466aa	0.0007492105
37	0x3a3979bb	0.0007075329
38	0x39a395d3	0.0003120141
39	0x39cf3137	0.00039518785
40	0x3a1cd121	0.00059820904
41	0x398af8ac	0.00026506686
42	0x3a17f14c	0.0005796149
43	0x39d9eaee	0.00041564502
44	0x3a38ccc1	0.00070495537
45	0x3a4ecf8a	0.0007889202
46	0x39de428e	0.00042392727
47	0x39f614f3	0.00046936385
48	0x399049c3	0.00027520777
49	0x3a230021	0.0006217976
50	0x35a197db	1.203963e-06
51	0x3a121460	0.0005572494
52	0x3a38fc6b	0.0007056656
53	0x3a619a44	0.0008606056
54	0x3987a007	0.00025868436
55	0x39c5876e	0.0003767567
56	0x3a246c81	0.0006272272
57	0x3a19effb	0.00058722467
58	0x39f00db0	0.00045786565
59	0x394bd8df	0.0001944038
60	0x39ea4638	0.00044684275
61	0x3a5bd6fe	0.00083862233
62	0x39acb57a	0.00032941607
63	0x3a809236	0.0009809199
